…
o":{"status":"ok","timestamp":1592158308740,"user_tz":-120,"elapsed":162190,"user":{"displayName":"IACOPO ERPICHINI","photoUrl":"","userId":"15535855654116468778"}},"colab":{"base_uri":"https://localhost:8080/","height":1000}},"source":["learn_vgg.summary()"],"execution_count":0,"outputs":[{"output_type":"execute_result","data":{"text/plain":["Sequential\n","======================================================================\n","Layer (type)         Output Shape         Param #    Trainable \n","======================================================================\n","Conv2d               [64, 224, 224]       1,792      False     \n","______________________________________________________________________\n","BatchNorm2d          [64, 224, 224]       128        True      \n","______________________________________________________________________\n","ReLU                 [64, 224, 224]       0          False     \n","______________________________________________________________________\n","Conv2d               [64, 224, 224]       36,928     False     \n","______________________________________________________________________\n","BatchNorm2d          [64, 224, 224]       128        True      \n","______________________________________________________________________\n","ReLU                 [64, 224, 224]       0          False     \n","______________________________________________________________________\n","MaxPool2d            [64, 112, 112]       0          False     \n","______________________________________________________________________\n","Conv2d               [128, 112, 112]      73,856     False     \n","______________________________________________________________________\n","BatchNorm2d          [128, 112, 112]      256        True      \n","______________________________________________________________________\n","ReLU                 [128, 112, 112]      0          False     \n","______________________________________________________________________\n","Conv2d               [128, 112, 112]      147,584    False     \n","______________________________________________________________________\n","BatchNorm2d          [128, 112, 112]      256        True      \n","______________________________________________________________________\n","ReLU                 [128, 112, 112]      0          False     \n","______________________________________________________________________\n","MaxPool2d            [128, 56, 56]        0          False     \n","______________________________________________________________________\n","Conv2d               [256, 56, 56]        295,168    False     \n","______________________________________________________________________\n","BatchNorm2d          [256, 56, 56]        512        True      \n","______________________________________________________________________\n","ReLU                 [256, 56, 56]        0          False     \n","______________________________________________________________________\n","Conv2d               [256, 56, 56]        590,080    False     \n","______________________________________________________________________\n","BatchNorm2d          [256, 56, 56]        512        True      \n","______________________________________________________________________\n","ReLU                 [256, 56, 56]        0          False     \n","______________________________________________________________________\n","Conv2d               [256, 56, 56]        590,080    False     \n","______________________________________________________________________\n","BatchNorm2d          [256, 56, 56]        512        True      \n","______________________________________________________________________\n","ReLU                 [256, 56, 56]        0          False     \n","______________________________________________________________________\n","MaxPool2d            [256, 28, 28]        0          False     \n","______________________________________________________________________\n","Conv2d               [512, 28, 28]        1,180,160  False     \n","______________________________________________________________________\n","BatchNorm2d          [512, 28, 28]        1,024      True      \n","______________________________________________________________________\n","ReLU                 [512, 28, 28]        0          False     \n","______________________________________________________________________\n","Conv2d               [512, 28, 28]        2,359,808  False     \n","______________________________________________________________________\n","BatchNorm2d          [512, 28, 28]        1,024      True      \n","______________________________________________________________________\n","ReLU                 [512, 28, 28]        0          False     \n","______________________________________________________________________\n","Conv2d               [512, 28, 28]        2,359,808  False     \n","______________________________________________________________________\n","BatchNorm2d          [512, 28, 28]        1,024      True      \n","______________________________________________________________________\n","ReLU                 [512, 28, 28]        0          False     \n","______________________________________________________________________\n","MaxPool2d            [512, 14, 14]        0          False     \n","______________________________________________________________________\n","Conv2d               [512, 14, 14]        2,359,808  False     \n","______________________________________________________________________\n","BatchNorm2d          [512, 14, 14]        1,024      True      \n","______________________________________________________________________\n","ReLU                 [512, 14, 14]        0          False     \n","______________________________________________________________________\n","Conv2d               [512, 14, 14]        2,359,808  False     \n","______________________________________________________________________\n","BatchNorm2d          [512, 14, 14]        1,024      True      \n","______________________________________________________________________\n","ReLU                 [512, 14, 14]        0          False     \n","______________________________________________________________________\n","Conv2d               [512, 14, 14]        2,359,808  False     \n","______________________________________________________________________\n","BatchNorm2d          [512, 14, 14]        1,024      True      \n","______________________________________________________________________\n","ReLU                 [512, 14, 14]        0          False     \n","______________________________________________________________________\n","MaxPool2d            [512, 7, 7]          0          False     \n","______________________________________________________________________\n","AdaptiveAvgPool2d    [512, 7, 7]          0          False     \n","______________________________________________________________________\n","AdaptiveAvgPool2d    [512, 1, 1]          0          False     \n","______________________________________________________________________\n","AdaptiveMaxPool2d    [512, 1, 1]          0          False     \n","______________________________________________________________________\n","Flatten              [1024]               0          False     \n","______________________________________________________________________\n","BatchNorm1d          [1024]               2,048      True      \n","______________________________________________________________________\n","Dropout       
…
