…
localhost:8080/","height":1000}},"source":["print(\"[INFO] summary for the whole model...\")\n","print(cnn_model.input_shape)\n","print(cnn_model.output_shape)\n","print(cnn_model.summary())"],"execution_count":0,"outputs":[{"output_type":"stream","text":["[INFO] summary for the whole model...\n","(None, 500, 375, 3)\n","(None, 16)\n","Model: \"model_2\"\n","_________________________________________________________________\n","Layer (type)                 Output Shape              Param #   \n","=================================================================\n","input_2 (InputLayer)         (None, 500, 375, 3)       0         \n","_________________________________________________________________\n","block1_conv1 (Conv2D)        (None, 500, 375, 64)      1792      \n","_________________________________________________________________\n","block1_conv2 (Conv2D)        (None, 500, 375, 64)      36928     \n","_________________________________________________________________\n","block1_pool (MaxPooling2D)   (None, 250, 187, 64)      0         \n","_________________________________________________________________\n","block2_conv1 (Conv2D)        (None, 250, 187, 128)     73856     \n","_________________________________________________________________\n","block2_conv2 (Conv2D)        (None, 250, 187, 128)     147584    \n","_________________________________________________________________\n","block2_pool (MaxPooling2D)   (None, 125, 93, 128)      0         \n","_________________________________________________________________\n","block3_conv1 (Conv2D)        (None, 125, 93, 256)      295168    \n","_________________________________________________________________\n","block3_conv2 (Conv2D)        (None, 125, 93, 256)      590080    \n","_________________________________________________________________\n","block3_conv3 (Conv2D)        (None, 125, 93, 256)      590080    \n","_________________________________________________________________\n","block3_pool (MaxPooling2D)   (None, 62, 46, 256)       0         \n","_________________________________________________________________\n","block4_conv1 (Conv2D)        (None, 62, 46, 512)       1180160   \n","_________________________________________________________________\n","block4_conv2 (Conv2D)        (None, 62, 46, 512)       2359808   \n","_________________________________________________________________\n","block4_conv3 (Conv2D)        (None, 62, 46, 512)       2359808   \n","_________________________________________________________________\n","block4_pool (MaxPooling2D)   (None, 31, 23, 512)       0         \n","_________________________________________________________________\n","block5_conv1 (Conv2D)        (None, 31, 23, 512)       2359808   \n","_________________________________________________________________\n","block5_conv2 (Conv2D)        (None, 31, 23, 512)       2359808   \n","_________________________________________________________________\n","block5_conv3 (Conv2D)        (None, 31, 23, 512)       2359808   \n","_________________________________________________________________\n","block5_pool (MaxPooling2D)   (None, 15, 11, 512)       0         \n","_________________________________________________________________\n","global_max_pooling2d_2 (Glob (None, 512)               0         \n","_________________________________________________________________\n","dense_4 (Dense)              (None, 4096)              2101248   \n","_________________________________________________________________\n","dense_5 (Dense)              (None, 4096)              16781312  \n","_________________________________________________________________\n","dense_6 (Dense)              (None, 16)                65552     \n","_________________________________________________________________\n","dense_7 (Dense)              (None, 16)                272       \n","=================================================================\n","Total params: 33,663,072\n","Trainable params: 18,948,384\n","Non-trainable params: 14,714,688\n","_________________________________________________________________\n","None\n"],"name":"stdout"}]},{"cell_type":"markdown","metadata":{"id":"wz358JXER5p2","colab_type":"text"},"source":["# Training"]},{"cell_type":"markd
…
