…
ttps://download.pytorch.org/models/vgg16_bn-6c64b313.pth\" to /root/.cache/torch/checkpoints/vgg16_bn-6c64b313.pth\n"],"name":"stderr"},{"output_type":"display_data","data":{"application/vnd.jupyter.widget-view+json":{"model_id":"c5cd47340b1e4df5a30dde5fc9aa1212","version_minor":0,"version_major":2},"text/plain":["HBox(children=(FloatProgress(value=0.0, max=553507836.0), HTML(value='')))"]},"metadata":{"tags":[]}},{"output_type":"stream","text":["\n"],"name":"stdout"},{"output_type":"execute_result","data":{"text/plain":["Sequential(\n","  (0): Sequential(\n","    (0): Sequential(\n","      (0): Conv2d(3, 64, kernel_size=(3, 3), stride=(1, 1), padding=(1, 1))\n","      (1): BatchNorm2d(64, eps=1e-05, momentum=0.1, affine=True, track_running_stats=True)\n","      (2): ReLU(inplace=True)\n","      (3): Conv2d(64, 64, kernel_size=(3, 3), stride=(1, 1), padding=(1, 1))\n","      (4): BatchNorm2d(64, eps=1e-05, momentum=0.1, affine=True, track_running_stats=True)\n","      (5): ReLU(inplace=True)\n","      (6): MaxPool2d(kernel_size=2, stride=2, padding=0, dilation=1, ceil_mode=False)\n","      (7): Conv2d(64, 128, kernel_size=(3, 3), stride=(1, 1), padding=(1, 1))\n","      (8): BatchNorm2d(128, eps=1e-05, momentum=0.1, affine=True, track_running_stats=True)\n","      (9): ReLU(inplace=True)\n","      (10): Conv2d(128, 128, kernel_size=(3, 3), stride=(1, 1), padding=(1, 1))\n","      (11): BatchNorm2d(128, eps=1e-05, momentum=0.1, affine=True, track_running_stats=True)\n","      (12): ReLU(inplace=True)\n","      (13): MaxPool2d(kernel_size=2, stride=2, padding=0, dilation=1, ceil_mode=False)\n","      (14): Conv2d(128, 256, kernel_size=(3, 3), stride=(1, 1), padding=(1, 1))\n","      (15): BatchNorm2d(256, eps=1e-05, momentum=0.1, affine=True, track_running_stats=True)\n","      (16): ReLU(inplace=True)\n","      (17): Conv2d(256, 256, kernel_size=(3, 3), stride=(1, 1), padding=(1, 1))\n","      (18): BatchNorm2d(256, eps=1e-05, momentum=0.1, affine=True, track_running_stats=True)\n","      (19): ReLU(inplace=True)\n","      (20): Conv2d(256, 256, kernel_size=(3, 3), stride=(1, 1), padding=(1, 1))\n","      (21): BatchNorm2d(256, eps=1e-05, momentum=0.1, affine=True, track_running_stats=True)\n","      (22): ReLU(inplace=True)\n","      (23): MaxPool2d(kernel_size=2, stride=2, padding=0, dilation=1, ceil_mode=False)\n","      (24): Conv2d(256, 512, kernel_size=(3, 3), stride=(1, 1), padding=(1, 1))\n","      (25): BatchNorm2d(512, eps=1e-05, momentum=0.1, affine=True, track_running_stats=True)\n","      (26): ReLU(inplace=True)\n","      (27): Conv2d(512, 512, kernel_size=(3, 3), stride=(1, 1), padding=(1, 1))\n","      (28): BatchNorm2d(512, eps=1e-05, momentum=0.1, affine=True, track_running_stats=True)\n","      (29): ReLU(inplace=True)\n","      (30): Conv2d(512, 512, kernel_size=(3, 3), stride=(1, 1), padding=(1, 1))\n","      (31): BatchNorm2d(512, eps=1e-05, momentum=0.1, affine=True, track_running_stats=True)\n","      (32): ReLU(inplace=True)\n","      (33): MaxPool2d(kernel_size=2, stride=2, padding=0, dilation=1, ceil_mode=False)\n","      (34): Conv2d(512, 512, kernel_size=(3, 3), stride=(1, 1), padding=(1, 1))\n","      (35): BatchNorm2d(512, eps=1e-05, momentum=0.1, affine=True, track_running_stats=True)\n","      (36): ReLU(inplace=True)\n","      (37): Conv2d(512, 512, kernel_size=(3, 3), stride=(1, 1), padding=(1, 1))\n","      (38): BatchNorm2d(512, eps=1e-05, momentum=0.1, affine=True, track_running_stats=True)\n","      (39): ReLU(inplace=True)\n","      (40): Conv2d(512, 512, kernel_size=(3, 3), stride=(1, 1), padding=(1, 1))\n","      (41): BatchNorm2d(512, eps=1e-05, momentum=0.1, affine=True, track_running_stats=True)\n","      (42): ReLU(inplace=True)\n","      (43): MaxPool2d(kernel_size=2, stride=2, padding=0, dilation=1, ceil_mode=False)\n","    )\n","    (1): AdaptiveAvgPool2d(output_size=(7, 7))\n","  )\n","  (1): Sequential(\n","    (0): AdaptiveConcatPool2d(\n","      (ap): AdaptiveAvgPool2d(output_size=1)\n","      (mp): AdaptiveMaxPool2d(output_size=1)\n","    )\n","    (1): Flatten()\n","    (2): BatchNorm1d(1024, eps=1e-05, momentum=0.1, affine=True, track_running_stats=True)\n","    (3): Dropout(p=0.25, inplace=False)\n","    (4): Linear(in_features=1024, out_features=512, bias=True)\n","    (5): ReLU(inplace=True)\n","    (6): BatchNorm1d(512, eps=1e-05, momentum=0.1, affine=True, track_running_stats=True)\n","    (7): Dropout(p=0.5, inplace=False)\n","    (8): Linear(in_features=512, out_features=16, bias=True)\n","  )\n",")"]},"metadata":{"tags":[]},"execution_count":6}]},{"cell_type":"markdown","metadata":{"id":"wQ5eTjJwgxnH","colab_type":"text"},"source":["Remove the final layers from the model:"]},{"cell_type":"code","metadata":{"id":"iwO-kpzmeQmd","colab_type":"code","outputId":"5460aac0-be83-421f-90d2-355718aaa463","executionInfo":{"status":"ok","timestamp":1589709052023,"user_tz":-120,"elapsed":1778988,"user":{"displayName":"JASON RAVAGLI","photoUrl":"","userId":"01884994422007125599"}},"colab":{"base_uri":"https://localhost:8080/","height":1000}},"source":["learn_vgg.model[-1] = learn_vgg.model[-1][:-3] \n","learn_vgg.model"],"execution_count":0,"outputs":[{"output_type":"execute_result","data":{"text/plain":["Sequential(\n","  (0): Sequential(\n","    (0): Sequential(\n","      (0): Conv2d(3, 64, kernel_size=(3, 3), stride=(1, 1), padding=(1, 1))\n","      (1): BatchNorm2d(64, eps=1e-05, momentum=0.1, affine=True, track_running_stats=True)\n","      (2): ReLU(inplace=True)\n","      (3): Conv2d(64, 64, kernel_size=(3, 3), stride=(1, 1), padding=(1, 1))\n","      (4): BatchNorm2d(64, eps=1e-05, momentum=0.1, affine=True, track_running_stats=True)\n","      (5): ReLU(inplace=True)\n","      (6): MaxPool2d(kernel_size=2, stride=2, padding=0, dilation=1, ceil_mode=False)\n","      (7): Conv2d(64, 128, kernel_size=(3, 3), stride=(1, 1), padding=(1, 1))\n","      (8): BatchNorm2d(128, eps=1e-05, momentum=0.1, affine=True, track_running_stats=True)\n","      (9): ReLU(inplace=True)\n","      (10): Conv2d(128, 128, kernel_size=(3, 3), stride=(1, 1), padding=(1, 1))\n","      (11): BatchNorm2d(128, eps=1e-05, momentum=0.1, affine=True, track_running_stats=True)\n","      (12): ReLU(inplace=True)\n","      (13): MaxPool2d(kernel_size=2, stride=2, padding=0, dilation=1, ceil_mode=False)\n","      (14): Conv2d(128, 256, kernel_size=(3, 3), stride=(1, 1), padding=(1, 1))\n","      (15): BatchNorm2d(256, eps=1e-05, momentum=0.1, affine=True, track_running_stats=True)\n","      (16): ReLU(inplace=True)\n","      (17): Conv2d(256, 256, kernel_size=(3, 3), stride=(1, 1), padding=(1, 1))\n","      (18): BatchNorm2d(256, eps=1e-05, momentum=0.1, affine=True, track_running_stats=True)\n","      (19): ReLU(inplace=True)\n","      (20): Conv2d(256, 256, kernel_size=(3, 3), stride=(1, 1), padding=(1, 1))\n","      (21): BatchNorm2d(256, eps=1e-05, momentum=0.1, affine=True, track_running_stats=True)\n","      (22): ReLU(inplace=True)\n","      (23): MaxPool2d(kernel_size=2, stride=2, padding=0, dilation=1, ceil_mode=False)\n","      (24): Conv2d(256, 512, kernel_size=(3, 3), stride=(1, 1), padding=(1, 1))\n","      (25): BatchNorm2d(512, eps=1e-05, momentum=0.1, affine=True, track_running_stats=True)\n","      (26): ReLU(inplace=True)\n","      (27): Conv2d(512, 512, kernel_size=(3, 3), stride=(1, 1), padding=(1, 1))\n","      (28): BatchNorm2d(512, eps=1e-05, momentum=0.1, affine=True, track_running_stats=True)\n","      (29): ReLU(inplace=True)\n","      (30): Conv2d(512, 512, kernel_size=(3, 3), stride=(1, 1), padding=(1, 1))\n","      (31): BatchNorm2d(512, eps=1e-05, momentum=0.1, affine=True, track_running_stats=True)\n","      (32): ReLU(inplace=True)\n","      (33): MaxPool2d(kernel_size=2, stride=2, padding=0, dilation=1, ceil_mode=False)\n","      (34): Conv2d(512, 512, kernel_size=(3, 3), stride=(1, 1), padding=(1, 1))\n","      (35): BatchNorm2d(512, eps=1e-05, momentum=0.1, affine=True, track_running_stats=True)\n","      (36): ReLU(inplace=True)\n","      (37): Conv2d(512, 512, kernel_size=(3, 3), stride=(1, 1), padding=(1, 1))\n","      (38): BatchNorm2d(512, eps=1e-05, momentum=0.1, affine=True, track_running_stats=True)\n","      (39): ReLU(inplace=True)\n","      (40): Conv2d(512, 512, kernel_size=(3, 3), stride=(1, 1), padding=(1, 1))\n","      (41): BatchNorm2d(512, eps=1e-05, momentum=0.1, affine=True, track_running_stats=True)\n","      (42): ReLU(inplace=True)\n","      (43): MaxPool2d(kernel_size=2, stride=2, padding=0, dilation=1, ceil_mode=False)\n","    )\n","    (1): AdaptiveAvgPool2d(output_size=(7, 7))\n","  )\n","  (1): Sequential(\n","    (0): AdaptiveConcatPool2d(\n","      (ap): AdaptiveAvgPool2d(output_size=1)\n","      (mp): AdaptiveMaxPool2d(output_size=1)\n","    )\n","    (1): Flatten()\n","    (2): BatchNorm1d(1024, eps=1e-05, momentum=0.1, affine=True, track_running_stats=True)\n","    (3): Dropout(p=0.25, inplace=False)\n","    (4): Linear(in_features=1024, out_features=512, bias=True)\n","    (5): ReLU(inplace=True)\n","  )\n",")"]},"metadata":{"tags":[]},"execution_count":7}]},{"cell_type":"markdown","metadata":{"id":"NLjSxjkBa9IF","colab_type":"text"},"source":["## LSTM-based Model (ULMFiT)"]},{"cell_type":"markdown","metadata":{"id":"h7Hj0jKAazs7","colab_type":"text"},"source":["### Data"]},{"cell_type":"code","metadata":{"id":"
…
ult=0.7,\n","                                     model_dir=input_models_folder)\n","learn_text.load(\"text-class_1488-288-192_valid-acc-55.55\")\n","learn_text.model"],"execution_count":0,"outputs":[{"output_type":"stream","text":["Downloading https://s3.amazonaws.com/fast-ai-modelzoo/wt103-fwd.tgz\n"],"name":"stdout"},{"output_type":"display_data","data":{"text/html":[""],"text/plain":["<IPython.core.display.HTML object>"]},"metadata":{"tags":[]}},{"output_type":"execute_result","data":{"text/plain":["SequentialRNN(\n","  (0): MultiBatchEncoder(\n","    (module): AWD_LSTM(\n","      (encoder): Embedding(15392, 400, padding_idx=1)\n","      (encoder_dp): EmbeddingDropout(\n","        (emb): Embedding(15392, 400, padding_idx=1)\n","      )\n","      (rnns): ModuleList(\n","        (0): WeightDropout(\n","          (module): LSTM(400, 1152, batch_first=True)\n","        )\n","        (1): WeightDropout(\n","          (module): LSTM(1152, 1152, batch_first=True)\n","        )\n","        (2): WeightDropout(\n","          (module): LSTM(1152, 400, batch_first=True)\n","        )\n","      )\n","      (input_dp): RNNDropout()\n","      (hidden_dps): ModuleList(\n","        (0): RNNDropout()\n","        (1): RNNDropout()\n","        (2): RNNDropout()\n","      )\n","    )\n","  )\n","  (1): PoolingLinearClassifier(\n","    (layers): Sequential(\n","      (0): BatchNorm1d(1200, eps=1e-05, momentum=0.1, affine=True, track_running_stats=True)\n","      (1): Dropout(p=0.27999999999999997, inplace=False)\n","      (2): Linear(in_features=1200, out_features=50, bias=True)\n","      (3): ReLU(inplace=True)\n","      (4): BatchNorm1d(50, eps=1e-05, momentum=0.1, affine=True, track_running_stats=True)\n","      (5): Dropout(p=0.1, inplace=False)\n","      (6): Linear(in_features=50, out_features=16, bias=True)\n","    )\n","  )\n",")"]},"metadata":{"tags":[]},"execution_count":10}]},{"cell_type":"markdown","metadata":{"id":"BpjHs2xFhBMA","colab_type":"text"},"source":["Remove the final layers from the model (according to https://gist.github.com/joshfp/b62b76eae95e6863cb511997b5a63118)"]},{"cell_type":"code","metadata":{"id":"f_ddKCxZfNzF","colab_type":"code","
…
6774-4e79-f84e-56239d7c3789","executionInfo":{"status":"ok","timestamp":1589709090904,"user_tz":-120,"elapsed":1817644,"user":{"displayName":"JASON RAVAGLI","photoUrl":"","userId":"01884994422007125599"}},"colab":{"base_uri":"https://localhost:8080/","height":1000}},"source":["lin_layers = [512+50, 16]\n","ps = [0.8]\n","model = ConcatModel(learn_vgg.model, learn_text.model, lin_layers, ps)\n","model"],"execution_count":0,"outputs":[{"output_type":"execute_result","data":{"text/plain":["ConcatModel(\n","  (mod_cnn): Sequential(\n","    (0): Sequential(\n","      (0): Sequential(\n","        (0): Conv2d(3, 64, kernel_size=(3, 3), stride=(1, 1), padding=(1, 1))\n","        (1): BatchNorm2d(64, eps=1e-05, momentum=0.1, affine=True, track_running_stats=True)\n","        (2): ReLU(inplace=True)\n","        (3): Conv2d(64, 64, kernel_size=(3, 3), stride=(1, 1), padding=(1, 1))\n","        (4): BatchNorm2d(64, eps=1e-05, momentum=0.1, affine=True, track_running_stats=True)\n","        (5): ReLU(inplace=True)\n","        (6): MaxPool2d(kernel_size=2, stride=2, padding=0, dilation=1, ceil_mode=False)\n","        (7): Conv2d(64, 128, kernel_size=(3, 3), stride=(1, 1), padding=(1, 1))\n","        (8): BatchNorm2d(128, eps=1e-05, momentum=0.1, affine=True, track_running_stats=True)\n","        (9): ReLU(inplace=True)\n","        (10): Conv2d(128, 128, kernel_size=(3, 3), stride=(1, 1), padding=(1, 1))\n","        (11): BatchNorm2d(128, eps=1e-05, momentum=0.1, affine=True, track_running_stats=True)\n","        (12): ReLU(inplace=True)\n","        (13): MaxPool2d(kernel_size=2, stride=2, padding=0, dilation=1, ceil_mode=False)\n","        (14): Conv2d(128, 256, kernel_size=(3, 3), stride=(1, 1), padding=(1, 1))\n","        (15): BatchNorm2d(256, eps=1e-05, momentum=0.1, affine=True, track_running_stats=True)\n","        (16): ReLU(inplace=True)\n","        (17): Conv2d(256, 256, kernel_size=(3, 3), stride=(1, 1), padding=(1, 1))\n","        (18): BatchNorm2d(256, eps=1e-05, momentum=0.1, affine=True, track_running_stats=True)\n","        (19): ReLU(inplace=True)\n","        (20): Conv2d(256, 256, kernel_size=(3, 3), stride=(1, 1), padding=(1, 1))\n","        (21): BatchNorm2d(256, eps=1e-05, momentum=0.1, affine=True, track_running_stats=True)\n","        (22): ReLU(inplace=True)\n","        (23): MaxPool2d(kernel_size=2, stride=2, padding=0, dilation=1, ceil_mode=False)\n","        (24): Conv2d(256, 512, kernel_size=(3, 3), stride=(1, 1), padding=(1, 1))\n","        (25): BatchNorm2d(512, eps=1e-05, momentum=0.1, affine=True, track_running_stats=True)\n","        (26): ReLU(inplace=True)\n","        (27): Conv2d(512, 512, kernel_size=(3, 3), stride=(1, 1), padding=(1, 1))\n","        (28): BatchNorm2d(512, eps=1e-05, momentum=0.1, affine=True, track_running_stats=True)\n","        (29): ReLU(inplace=True)\n","        (30): Conv2d(512, 512, kernel_size=(3, 3), stride=(1, 1), padding=(1, 1))\n","        (31): BatchNorm2d(512, eps=1e-05, momentum=0.1, affine=True, track_running_stats=True)\n","        (32): ReLU(inplace=True)\n","        (33): MaxPool2d(kernel_size=2, stride=2, padding=0, dilation=1, ceil_mode=False)\n","        (34): Conv2d(512, 512, kernel_size=(3, 3), stride=(1, 1), padding=(1, 1))\n","        (35): BatchNorm2d(512, eps=1e-05, momentum=0.1, affine=True, track_running_stats=True)\n","        (36): ReLU(inplace=True)\n","        (37): Conv2d(512, 512, kernel_size=(3, 3), stride=(1, 1), padding=(1, 1))\n","        (38): BatchNorm2d(512, eps=1e-05, momentum=0.1, affine=True, track_running_stats=True)\n","        (39): ReLU(inplace=True)\n","        (40): Conv2d(512, 512, kernel_size=(3, 3), stride=(1, 1), padding=(1, 1))\n","        (41): BatchNorm2d(512, eps=1e-05, momentum=0.1, affine=True, track_running_stats=True)\n","        (42): ReLU(inplace=True)\n","        (43): MaxPool2d(kernel_size=2, stride=2, padding=0, dilation=1, ceil_mode=False)\n","      )\n","      (1): AdaptiveAvgPool2d(output_size=(7, 7))\n","    )\n","    (1): Sequential(\n","      (0): AdaptiveConcatPool2d(\n","        (ap): AdaptiveAvgPool2d(output_size=1)\n","        (mp): AdaptiveMaxPool2d(output_size=1)\n","      )\n","      (1): Flatten()\n","      (2): BatchNorm1d(1024, eps=1e-05, momentum=0.1, affine=True, track_running_stats=True)\n","      (3): Dropout(p=0.25, inplace=False)\n","      (4): Linear(in_features=1024, out_features=512, bias=True)\n","      (5): ReLU(inplace=True)\n","    )\n","  )\n","  (mod_nlp): SequentialRNN(\n","    (0): MultiBatchEncoder(\n","      (module): AWD_LSTM(\n","        (encoder): Embedding(15392, 400, padding_idx=1)\n","        (encoder_dp): EmbeddingDropout(\n","          (emb): Embedding(15392, 400, padding_idx=1)\n","        )\n","        (rnns): ModuleList(\n","          (0): WeightDropout(\n","            (module): LSTM(400, 1152, batch_first=True)\n","          )\n","          (1): WeightDropout(\n","            (module): LSTM(1152, 1152, batch_first=True)\n","          )\n","          (2): WeightDropout(\n","            (module): LSTM(1152, 400, batch_first=True)\n","          )\n","        )\n","        (input_dp): RNNDropout()\n","        (hidden_dps): ModuleList(\n","          (0): RNNDropout()\n","          (1): RNNDropout()\n","          (2): RNNDropout()\n","        )\n","      )\n","    )\n","    (1): PoolingLinearClassifier(\n","      (layers): Sequential(\n","        (0): BatchNorm1d(1200, eps=1e-05, momentum=0.1, affine=True, track_running_stats=True)\n","        (1): Dropout(p=0.27999999999999997, inplace=False)\n","        (2): Linear(in_features=1200, out_features=50, bias=True)\n","        (3): ReLU(inplace=True)\n","      )\n","    )\n","  )\n","  (layers): Sequential(\n","    (0): BatchNorm1d(562, eps=1e-05, momentum=0.1, affine=True, track_running_stats=True)\n","    (1): Dropout(p=0.8, inplace=False)\n","    (2): Linear(in_features=562, out_features=16, bias=True)\n","  )\n",")"]},"metadata":{"tags":[]},"execution_count":19}]},{"cell_type":"markdown","metadata":{"id":"ofNKNyU6qLm5","colab_type":"text"},"source":["## Learner"]},{"cell_type":"code","metadata":{"id":"EsO0RZXRnjOq","colab_type":"code","outputId":"a209b34d-ea41-4c2d-f66e-ef59a5078865","executionInfo":{"status":"ok","timestamp":1589709090905,"user_tz":
…
pe":"stream","text":["5\n","3\n"],"name":"stdout"}]},{"cell_type":"code","metadata":{"id":"VailNOCcZseh","colab_type":"code","outputId":"d88e6405-3c68-48c9-e24c-2032a22f621a","executionInfo":{"status":"ok","timestamp":1589709090906,"user_tz":-120,"elapsed":1817600,"user":{"displayName":"JASON RAVAGLI","photoUrl":"","userId":"01884994422007125599"}},"colab":{"base_uri":"https://localhost:8080/","height":1000}},"source":["learn_vgg.model"],"execution_count":0,"outputs":[{"output_type":"execute_result","data":{"text/plain":["Sequential(\n","  (0): Sequential(\n","    (0): Sequential(\n","      (0): Conv2d(3, 64, kernel_size=(3, 3), stride=(1, 1), padding=(1, 1))\n","      (1): BatchNorm2d(64, eps=1e-05, momentum=0.1, affine=True, track_running_stats=True)\n","      (2): ReLU(inplace=True)\n","      (3): Conv2d(64, 64, kernel_size=(3, 3), stride=(1, 1), padding=(1, 1))\n","      (4): BatchNorm2d(64, eps=1e-05, momentum=0.1, affine=True, track_running_stats=True)\n","      (5): ReLU(inplace=True)\n","      (6): MaxPool2d(kernel_size=2, stride=2, padding=0, dilation=1, ceil_mode=False)\n","      (7): Conv2d(64, 128, kernel_size=(3, 3), stride=(1, 1), padding=(1, 1))\n","      (8): BatchNorm2d(128, eps=1e-05, momentum=0.1, affine=True, track_running_stats=True)\n","      (9): ReLU(inplace=True)\n","      (10): Conv2d(128, 128, kernel_size=(3, 3), stride=(1, 1), padding=(1, 1))\n","      (11): BatchNorm2d(128, eps=1e-05, momentum=0.1, affine=True, track_running_stats=True)\n","      (12): ReLU(inplace=True)\n","      (13): MaxPool2d(kernel_size=2, stride=2, padding=0, dilation=1, ceil_mode=False)\n","      (14): Conv2d(128, 256, kernel_size=(3, 3), stride=(1, 1), padding=(1, 1))\n","      (15): BatchNorm2d(256, eps=1e-05, momentum=0.1, affine=True, track_running_stats=True)\n","      (16): ReLU(inplace=True)\n","      (17): Conv2d(256, 256, kernel_size=(3, 3), stride=(1, 1), padding=(1, 1))\n","      (18): BatchNorm2d(256, eps=1e-05, momentum=0.1, affine=True, track_running_stats=True)\n","      (19): ReLU(inplace=True)\n","      (20): Conv2d(256, 256, kernel_size=(3, 3), stride=(1, 1), padding=(1, 1))\n","      (21): BatchNorm2d(256, eps=1e-05, momentum=0.1, affine=True, track_running_stats=True)\n","      (22): ReLU(inplace=True)\n","      (23): MaxPool2d(kernel_size=2, stride=2, padding=0, dilation=1, ceil_mode=False)\n","      (24): Conv2d(256, 512, kernel_size=(3, 3), stride=(1, 1), padding=(1, 1))\n","      (25): BatchNorm2d(512, eps=1e-05, momentum=0.1, affine=True, track_running_stats=True)\n","      (26): ReLU(inplace=True)\n","      (27): Conv2d(512, 512, kernel_size=(3, 3), stride=(1, 1), padding=(1, 1))\n","      (28): BatchNorm2d(512, eps=1e-05, momentum=0.1, affine=True, track_running_stats=True)\n","      (29): ReLU(inplace=True)\n","      (30): Conv2d(512, 512, kernel_size=(3, 3), stride=(1, 1), padding=(1, 1))\n","      (31): BatchNorm2d(512, eps=1e-05, momentum=0.1, affine=True, track_running_stats=True)\n","      (32): ReLU(inplace=True)\n","      (33): MaxPool2d(kernel_size=2, stride=2, padding=0, dilation=1, ceil_mode=False)\n","      (34): Conv2d(512, 512, kernel_size=(3, 3), stride=(1, 1), padding=(1, 1))\n","      (35): BatchNorm2d(512, eps=1e-05, momentum=0.1, affine=True, track_running_stats=True)\n","      (36): ReLU(inplace=True)\n","      (37): Conv2d(512, 512, kernel_size=(3, 3), stride=(1, 1), padding=(1, 1))\n","      (38): BatchNorm2d(512, eps=1e-05, momentum=0.1, affine=True, track_running_stats=True)\n","      (39): ReLU(inplace=True)\n","      (40): Conv2d(512, 512, kernel_size=(3, 3), stride=(1, 1), padding=(1, 1))\n","      (41): BatchNorm2d(512, eps=1e-05, momentum=0.1, affine=True, track_running_stats=True)\n","      (42): ReLU(inplace=True)\n","      (43): MaxPool2d(kernel_size=2, stride=2, padding=0, dilation=1, ceil_mode=False)\n","    )\n","    (1): AdaptiveAvgPool2d(output_size=(7, 7))\n","  )\n","  (1): Sequential(\n","    (0): AdaptiveConcatPool2d(\n","      (ap): AdaptiveAvgPool2d(output_size=1)\n","      (mp): AdaptiveMaxPool2d(output_size=1)\n","    )\n","    (1): Flatten()\n","    (2): BatchNorm1d(1024, eps=1e-05, momentum=0.1, affine=True, track_running_stats=True)\n","    (3): Dropout(p=0.25, inplace=False)\n","    (4): Linear(in_features=1024, out_features=512, bias=True)\n","    (5): ReLU(inplace=True)\n","  )\n",")"]},"metadata":{"tags":[]},"execution_count":21}]},{"cell_type":"code","metadata":{"id":"KHq3iYh0ZPq4","colab_type":"code","outputId":"16968d6d-bf88-4039-cc80-c420c8cd2ae0","executionInfo":{"status":"ok","timestamp":1589709090908,"user_tz":-120,"elapsed":1817581,"user":{"displayName":"JASON RAVAGLI","photoUrl":"","userId":"01884994422007125599"}},"colab":{"base_uri":"https://localhost:8080/","height":1000}},"source":["learn_vgg.layer_groups"],"execution_count":0,"outputs":[{"output_type":"execute_result","data":{"text/plain":["[Sequential(\n","   (0): Conv2d(3, 64, kernel_size=(3, 3), stride=(1, 1), padding=(1, 1))\n","   (1): BatchNorm2d(64, eps=1e-05, momentum=0.1, affine=True, track_running_stats=True)\n","   (2): ReLU(inplace=True)\n","   (3): Conv2d(64, 64, kernel_size=(3, 3), stride=(1, 1), padding=(1, 1))\n","   (4): BatchNorm2d(64, eps=1e-05, momentum=0.1, affine=True, track_running_stats=True)\n","   (5): ReLU(inplace=True)\n","   (6): MaxPool2d(kernel_size=2, stride=2, padding=0, dilation=1, ceil_mode=False)\n","   (7): Conv2d(64, 128, kernel_size=(3, 3), stride=(1, 1), padding=(1, 1))\n","   (8): BatchNorm2d(128, eps=1e-05, momentum=0.1, affine=True, track_running_stats=True)\n","   (9): ReLU(inplace=True)\n","   (10): Conv2d(128, 128, kernel_size=(3, 3), stride=(1, 1), padding=(1, 1))\n","   (11): BatchNorm2d(128, eps=1e-05, momentum=0.1, affine=True, track_running_stats=True)\n","   (12): ReLU(inplace=True)\n","   (13): MaxPool2d(kernel_size=2, stride=2, padding=0, dilation=1, ceil_mode=False)\n","   (14): Conv2d(128, 256, kernel_size=(3, 3), stride=(1, 1), padding=(1, 1))\n","   (15): BatchNorm2d(256, eps=1e-05, momentum=0.1, affine=True, track_running_stats=True)\n","   (16): ReLU(inplace=True)\n","   (17): Conv2d(256, 256, kernel_size=(3, 3), stride=(1, 1), padding=(1, 1))\n","   (18): BatchNorm2d(256, eps=1e-05, momentum=0.1, affine=True, track_running_stats=True)\n","   (19): ReLU(inplace=True)\n","   (20): Conv2d(256, 256, kernel_size=(3, 3), stride=(1, 1), padding=(1, 1))\n","   (21): BatchNorm2d(256, eps=1e-05, momentum=0.1, affine=True, track_running_stats=True)\n"," ), Sequential(\n","   (0): ReLU(inplace=True)\n","   (1): MaxPool2d(kernel_size=2, stride=2, padding=0, dilation=1, ceil_mode=False)\n","   (2): Conv2d(256, 512, kernel_size=(3, 3), stride=(1, 1), padding=(1, 1))\n","   (3): BatchNorm2d(512, eps=1e-05, momentum=0.1, affine=True, track_running_stats=True)\n","   (4): ReLU(inplace=True)\n","   (5): Conv2d(512, 512, kernel_size=(3, 3), stride=(1, 1), padding=(1, 1))\n","   (6): BatchNorm2d(512, eps=1e-05, momentum=0.1, affine=True, track_running_stats=True)\n","   (7): ReLU(inplace=True)\n","   (8): Conv2d(512, 512, kernel_size=(3, 3), stride=(1, 1), padding=(1, 1))\n","   (9): BatchNorm2d(512, eps=1e-05, momentum=0.1, affine=True, track_running_stats=True)\n","   (10): ReLU(inplace=True)\n","   (11): MaxPool2d(kernel_size=2, stride=2, padding=0, dilation=1, ceil_mode=False)\n","   (12): Conv2d(512, 512, kernel_size=(3, 3), stride=(1, 1), padding=(1, 1))\n","   (13): BatchNorm2d(512, eps=1e-05, momentum=0.1, affine=True, track_running_stats=True)\n","   (14): ReLU(inplace=True)\n","   (15): Conv2d(512, 512, kernel_size=(3, 3), stride=(1, 1), padding=(1, 1))\n","   (16): BatchNorm2d(512, eps=1e-05, momentum=0.1, affine=True, track_running_stats=True)\n","   (17): ReLU(inplace=True)\n","   (18): Conv2d(512, 512, kernel_size=(3, 3), stride=(1, 1), padding=(1, 1))\n","   (19): BatchNorm2d(512, eps=1e-05, momentum=0.1, affine=True, track_running_stats=True)\n","   (20): ReLU(inplace=True)\n","   (21): MaxPool2d(kernel_size=2, stride=2, padding=0, dilation=1, ceil_mode=False)\n","   (22): AdaptiveAvgPool2d(output_size=(7, 7))\n"," ), Sequential(\n","   (0): AdaptiveAvgPool2d(output_size=1)\n","   (1): AdaptiveMaxPool2d(output_size=1)\n","   (2): Flatten()\n","   (3): BatchNorm1d(1024, eps=1e-05, momentum=0.1, affine=True, track_running_stats=True)\n","   (4): Dropout(p=0.25, inplace=False)\n","   (5): Linear(in_features=1024, out_features=512, bias=True)\n","   (6): ReLU(inplace=True)\n","   (7): BatchNorm1d(512, eps=1e-05, momentum=0.1, affine=True, track_running_stats=True)\n","   (8): Dropout(p=0.5, inplace=False)\n","   (9): Linear(in_features=512, out_features=16, bias=True)\n"," )]"]},"metadata":{"tags":[]},"execution_count":22}]},{"cell_type":"markdown","metadata":{"id":"Ld4gb5R5c6bT","colab_type":"text"},"source":["Define layer groups for the new model. Reuse the two other models layer groups and add a group with the new final layers.\n","\n","N.B. Separate the CNN linear layers from the last convolutional section into a
…
